…
      "outputs": [
        {
          "output_type": "stream",
          "name": "stdout",
          "text": [
            "Model: \"model_20\"\n",
            "_________________________________________________________________\n",
            " Layer (type)                Output Shape              Param #   \n",
            "=================================================================\n",
            " input_21 (InputLayer)       [(None, 4, 5, 6, 1)]      0         \n",
            "                                                                 \n",
            " conv_lstm2d_43 (ConvLSTM2D)  (None, 4, 5, 6, 32)      105728    \n",
            "                                                                 \n",
            " batch_normalization_14 (Bat  (None, 4, 5, 6, 32)      128       \n",
            " chNormalization)                                                \n",
            "                                                                 \n",
            " conv_lstm2d_44 (ConvLSTM2D)  (None, 4, 5, 6, 64)      73984     \n",
            "                                                                 \n",
            " conv_lstm2d_45 (ConvLSTM2D)  (None, 4, 5, 6, 64)      164096    \n",
            "                                                                 \n",
            " conv2d_8 (Conv2D)           (None, 4, 5, 2, 128)      24704     \n",
            "                                                                 \n",
            " flatten_20 (Flatten)        (None, 5120)              0         \n",
            "                                                                 \n",
            " dense_57 (Dense)            (None, 1000)              5121000   \n",
            "                                                                 \n",
            " dense_58 (Dense)            (None, 500)               500500    \n",
            "                                                                 \n",
            " dense_59 (Dense)            (None, 3)                 1503      \n",
            "                                                                 \n",
            "=================================================================\n",
            "Total params: 5,991,643\n",
            "Trainable params: 5,991,579\n",
            "Non-trainable params: 64\n",
            "_________________________________________________________________\n"
          ]
        }
…
      "outputs": [
        {
          "output_type": "stream",
          "name": "stdout",
          "text": [
            "Model: \"model_8\"\n",
            "_________________________________________________________________\n",
            " Layer (type)                Output Shape              Param #   \n",
            "=================================================================\n",
            " input_12 (InputLayer)       [(None, 1, 5, 24, 1)]     0         \n",
            "                                                                 \n",
            " conv_lstm2d_29 (ConvLSTM2D)  (None, 1, 5, 8, 32)      12800     \n",
            "                                                                 \n",
            " batch_normalization_7 (Batc  (None, 1, 5, 8, 32)      128       \n",
            " hNormalization)                                                 \n",
            "                                                                 \n",
            " conv_lstm2d_30 (ConvLSTM2D)  (None, 1, 5, 3, 64)      73984     \n",
            "                                                                 \n",
            " conv_lstm2d_31 (ConvLSTM2D)  (None, 1, 5, 2, 64)      65792     \n",
            "                                                                 \n",
            " conv2d_7 (Conv2D)           (None, 1, 5, 2, 128)      16512     \n",
            "                                                                 \n",
            " flatten_8 (Flatten)         (None, 1280)              0         \n",
            "                                                                 \n",
            " dense_23 (Dense)            (None, 1000)              1281000   \n",
            "                                                                 \n",
            " dense_24 (Dense)            (None, 500)               500500    \n",
            "                                                                 \n",
            " dense_25 (Dense)            (None, 3)                 1503      \n",
            "                                                                 \n",
            "=================================================================\n",
            "Total params: 1,952,219\n",
            "Trainable params: 1,952,155\n",
            "Non-trainable params: 64\n",
            "_________________________________________________________________\n"
          ]
        }
…
